data.pth (torch, 15807 bytes, 6 tensors)

l1.weight f4 [8, 268]
0	0x3e97e5fa	0.29667646
1	0x3f5ac044	0.85449624
2	0x3f101948	0.56288576
3	0xbf5b6ad0	-0.8570986
4	0xbf02f6bb	-0.5115773
5	0x3e0f188e	0.1397421
6	0x3f3c5040	0.7355995
7	0x3df3a620	0.1189692
8	0xbf2d9fa8	-0.6782174
9	0x3f9dda5d	1.2332264
10	0xbee9488d	-0.45563164
11	0x3e3c7a91	0.1840613
12	0x3e118a59	0.14212932
13	0x3f952676	1.1652362
14	0x3f275f5f	0.653799
15	0x3fc05619	1.5026275
16	0x3f13102a	0.5744654
17	0x4020e8f3	2.514218
18	0xbf362041	-0.71142966
19	0x3f450c8c	0.7697227
20	0x3eac26df	0.33623406
21	0x3f00cbe5	0.5031112
22	0x4003e03c	2.0605612
23	0x3ebafbde	0.36520284
24	0x3f1d091a	0.6134201
25	0x3f8393c2	1.0279467
26	0x3f83ca91	1.0296193
27	0x3ed78e01	0.42100528
28	0xbe67bf34	-0.22631532
29	0x3e3682da	0.17823353
30	0xbe7cdfc7	-0.2469474
31	0xbc33f744	-0.010984246
32	0xbede1413	-0.4337469
33	0xbe8bacb3	-0.27280197
34	0x3f50323b	0.81326646
35	0xbe60907f	-0.21930121
36	0x3fb8845c	1.4415393
37	0xbf277c3f	-0.6542396
38	0x3f13aa4d	0.57681733
39	0x3f85420c	1.0410781
40	0xbebe5b23	-0.37178907
41	0x3f96f1c2	1.1792529
42	0xbefd1d36	-0.4943635
43	0x3e8956f8	0.26824164
44	0x3f535273	0.8254768
45	0x3ec8ad4e	0.3919472
46	0xbe46decc	-0.19420928
47	0x3f1b6a4c	0.6070907
48	0x3e968815	0.29400697
49	0x3fd52b64	1.6653867
50	0xbecd2b71	-0.40072206
51	0x3f4c4009	0.7978521
52	0x3f969839	1.1765205
53	0x3f8fcba5	1.1234022
54	0x3ed34464	0.41263115
55	0xbfbfd77b	-1.4987634
56	0x3e8b34be	0.27188677
57	0xbf7831d2	-0.9695102
58	0x3e97ea26	0.2967083
59	0x3f94ceec	1.1625648
60	0xbfabefc1	-1.3432542
61	0x3f8414a7	1.0318803
62	0xbf1fb401	-0.6238404
63	0x3ff481f8	1.9102163
64	0x3f2d6678	0.6773448
65	0xbf828903	-1.0198063
66	0xbe7fad4a	-0.24968448
67	0x3e415330	0.1887939
68	0x3fda3b56	1.7049358
69	0xbe040110	-0.1289103
70	0x3f39f853	0.7264454
71	0xbf03770f	-0.51353544
72	0x3ecec5ab	0.40385184
73	0xbe3e3e2a	-0.18578401
74	0xbf511558	-0.8167319
75	0x400d60ae	2.2090259
76	0x3f175281	0.59110266
77	0x3f27898f	0.6544427
78	0xbca36ec2	-0.019950274
79	0x3e96e233	0.2946945
80	0x3e65b394	0.22431785
81	0xbf8c694f	-1.0969638
82	0x3e0e45c2	0.13893798
83	0x3fbd3015	1.4780298
84	0xbf27babd	-0.65519315
85	0x3fc75d24	1.5575299
86	0x4025a665	2.588281
87	0x3f98653a	1.1905892
88	0xbf27c85a	-0.6554009
89	0x3fa6317f	1.2983855
90	0x3f1a86f8	0.60362196
91	0x3f3bb627	0.7332482
92	0xbf4312ba	-0.7620045
93	0xbdad639b	-0.08466264
94	0x3f2c354f	0.6726884
95	0xbea6e54e	-0.3259682
96	0xbf058aec	-0.521651
97	0x3f586417	0.84527725
98	0x3f5c675e	0.86095226
99	0xbf27c84d	-0.6554001
100	0xbe1be4ab	-0.15223949
101	0xbf27c09e	-0.65528286
102	0xbf855be0	-1.0418663
103	0x3e94f2c6	0.2909147
104	0x3f84700d	1.0346695
105	0x3dfdfeba	0.12402101
106	0x3f0f95f2	0.56088173
107	0x3e8767ea	0.26446468
108	0xbea58f40	-0.32335854
109	0xbd94e54f	-0.072703
110	0x3f34bc95	0.70600253
111	0xbfa18420	-1.2618446
112	0x3ec0b342	0.37636763
113	0x3f509696	0.81479776
114	0x3ea2d706	0.31804675
115	0x3f2d140b	0.6760871
116	0x3f8f3c62	1.1190302
117	0x3f1b5526	0.606768
118	0xbea3182b	-0.31854376
119	0xbeb87a25	-0.3603069
120	0xbbea1a3f	-0.007144242
121	0x3fa13188	1.2593241
122	0x3fc5c4c2	1.5450671
123	0xbec794f1	-0.3898082
124	0x3f947ca8	1.1600542
125	0x3f3c3503	0.7351839
126	0xbee25cf6	-0.4421155
127	0xbeacc305	-0.33742538
128	0x3f536fbb	0.8259236
129	0xbd650bea	-0.055919565
130	0xbef3f56e	-0.47648185
131	0xbf2aa1ec	-0.66653323
132	0x3e8de5ec	0.2771448
133	0x3f3e4bca	0.74334395
134	0x3e812f3f	0.25231358
135	0x3f44279f	0.76622957
136	0x3f3c38d6	0.73524225
137	0x4021be3a	2.5272355
138	0x3f6afd64	0.91792893
139	0x3ee12a00	0.43977356
140	0x3f4da371	0.80327517
141	0x3d165f04	0.036711708
142	0x3fc0fd14	1.5077233
143	0x3f419dd3	0.75631446
144	0xbfdd6b97	-1.7298459
145	0x4018f523	2.389962
146	0xbdc6f365	-0.097143926
147	0xbda65adb	-0.08122798
148	0x3f75127d	0.95731336
149	0xbfbfc6d3	-1.4982551
150	0xbf532bc2	-0.82488644
151	0xbe22be7c	-0.15892977
152	0xbee6cc60	-0.450778
153	0xbe65ca57	-0.22440468
154	0x3f75bc05	0.9599002
155	0x3ee4a9b3	0.4466072
156	0x3f3ff5be	0.7498435
157	0x3f4de52a	0.804278
158	0x3eab5cd1	0.3346925
159	0x3e75da7a	0.24009123
160	0xbe105ae1	-0.14097168
161	0xbfb40237	-1.4063176
162	0xbf7d6fd5	-0.9899877
163	0xbf1c1500	-0.60969543
164	0xbf65220a	-0.89505064
165	0xbf001c45	-0.50043136
166	0x3e33b8ae	0.17550918
167	0xbfb0cb3c	-1.3812022
168	0x3f5055e3	0.8138105
169	0x3f9fcc3f	1.2484206
170	0x3f783487	0.9695515
171	0xbdbcc40a	-0.09217079
172	0x3e692a1c	0.2276997
173	0x3fddd679	1.7331077
174	0x3f531189	0.8244863
175	0x3f136e4f	0.5759019
176	0xbfae03d7	-1.3594922
177	0x3f995eab	1.1982015
178	0xbbecfbf4	-0.0072321836
179	0x3fe09af4	1.7547288
180	0xbfb8c857	-1.4436139
181	0xbedc3a14	-0.4301306
182	0x3e77e71d	0.24209256
183	0x3f815631	1.0104429
184	0x3f53fdb0	0.8280897
185	0xbe4acd48	-0.19804871
186	0xbf06168a	-0.5237814
187	0x3f816e11	1.0111715
188	0x3f92b9b2	1.146292
189	0x3eba9ac9	0.36446217
190	0x3f021d1c	0.5082567
191	0x3e06a17e	0.13147542
192	0x3f7a4e7f	0.97776026
193	0x3dd0516a	0.101717785
194	0x3fedbe90	1.857378
195	0x3f4fd5f3	0.81185836
196	0x3e09d7ad	0.1346118
197	0x3f8217b4	1.0163484
198	0xbcd8e9ae	-0.026478615
199	0x3f53cc3a	0.827335
200	0xbdb02b71	-0.08602036
201	0xbd8ecafa	-0.069723085
202	0xbf7460a3	-0.95459956
203	0x3fd4fe31	1.6640073
204	0x3f364b40	0.7120857
205	0x3e24fc95	0.16111977
206	0xbe8ab593	-0.27091655
207	0x3ff16112	1.8857749
208	0x3e80bce1	0.25144103
209	0xbeab4675	-0.33452192
210	0xbf43a974	-0.7643044
211	0xbe2fba7f	-0.17160986
212	0xbedade2d	-0.42747632
213	0xbde29c19	-0.110649295
214	0x3f60634a	0.87651503
215	0x3f8e0d32	1.1097777
216	0x3e383313	0.17988233
217	0x3f97a095	1.1845881
218	0xbef1df70	-0.47240782
219	0x3f6d098a	0.9259268
220	0x3f3bd1d3	0.7336704
221	0x3de63a9c	0.112416476
222	0x3fd9f454	1.7027688
223	0x3f38a511	0.7212687
224	0x3eca2854	0.39483893
225	0xbf857b07	-1.042817
226	0x3dacfae3	0.0844629
227	0x3f6dfc30	0.9296293
228	0x3f308aaf	0.68961614
229	0x3f0492f2	0.5178672
230	0x3f128ff4	0.57250905
231	0xbe126771	-0.14297272
232	0x3f38e1ae	0.7221936
233	0x3f2250e2	0.6340467
234	0xbea37a48	-0.3192923
235	0x3fbc500b	1.4711927
236	0x3ecb9076	0.39758652
237	0x3f8fecaa	1.1244099
238	0x3f258f22	0.6467153
239	0x3f8a69c8	1.0813532
240	0xbf210d04	-0.62910485
241	0x3f845b92	1.0340445
242	0xbf5a150c	-0.85188365
243	0xbfb2d7bb	-1.3972086
244	0x3f162fb5	0.58666545
245	0x3fd9fc34	1.7030091
246	0x3e9ee837	0.3103654
247	0x3f098b6c	0.53728366
248	0xbfd3730f	-1.6519488
249	0xbdd6ee72	-0.104946986
250	0xbdf2ac31	-0.11849249
251	0xbf7ec78f	-0.9952325
252	0xbf279c8e	-0.6547326
253	0xbf3122e3	-0.6919386
254	0x3dafd2ff	0.08585166
255	0x3e1b7916	0.1518291

l1.bias f4 [8]
0	0x3f1fc9ec	0.62417483
1	0x3ef530f7	0.4788892
2	0x3f0d8377	0.55278724
3	0x3fbe77df	1.4880332
4	0x3f57877b	0.841911
5	0x3ef41644	0.47673237
6	0x3f625ed6	0.8842596
7	0x3f1d11d5	0.61355335

l2.weight f4 [8, 8]
0	0xbf988aaa	-1.1917317
1	0x3f8fcf13	1.1235069
2	0x3fab81b2	1.3398955
3	0x4018633b	2.3810565
4	0x40053f71	2.0819972
5	0xbf26818d	-0.6504143
6	0xbf24e127	-0.64406055
7	0x3eda7df2	0.42674214
8	0x3fa4a7cc	1.2863708
9	0x3f950010	1.1640644
10	0x40081eaf	2.1268728
11	0x3f0f1961	0.558981
12	0xbf5a2b04	-0.85221887
13	0x3e708fe3	0.23492388
14	0x3f89cf2b	1.0766348
15	0xbf70cbd0	-0.94060993
16	0x3e2ede97	0.17077099
17	0xbca556d7	-0.02018301
18	0xbdf8b1c5	-0.12143282
19	0xbcc358d4	-0.023846067
20	0xbe582303	-0.21107106
21	0xbe8610af	-0.26184604
22	0xbde96ed5	-0.11398093
23	0xbd57d19a	-0.052690126
24	0x3fcbd44f	1.5924166
25	0x3baae0c7	0.005214784
26	0xbfc1ba43	-1.5134968
27	0x3f368573	0.7129738
28	0x3f1cadb2	0.6120254
29	0x40325508	2.78644
30	0xbee353cf	-0.44399878
31	0x3fa0582f	1.2526911
32	0x3fa90cea	1.3207066
33	0xbffc3554	-1.9703774
34	0x3fa47da6	1.2850845
35	0x3c552d3a	0.013011271
36	0xbda46516	-0.08027093
37	0xbf9cb5d4	-1.224299
38	0x3fc7ceed	1.5610024
39	0x3d9e0ca9	0.077172585
40	0x3e1d071a	0.1533474
41	0xbf325b97	-0.69671005
42	0xbeb26c74	-0.34848368
43	0x3fc60019	1.546878
44	0xbf45a0c1	-0.77198416
45	0x3e5cd5f7	0.21565996
46	0x3fd839ae	1.6892602
47	0xbfb04e00	-1.3773804
48	0xbe8ba5bf	-0.27274892
49	0xbffe7af3	-1.9881271
50	0x3e7f43d3	0.24928217
51	0xbf552989	-0.832665
52	0x4002e9fb	2.045531
53	0xbea0f686	-0.31438082
54	0x3fce899e	1.6135747
55	0x3f993fc3	1.1972584
56	0x3fcf5db3	1.620047
57	0xbf75cbd5	-0.9601415
58	0xbda5a47a	-0.08088012
59	0x3f63f4d0	0.8904543
60	0xbf680bf4	-0.9064324
61	0xbfa41d3a	-1.2821419
62	0x3ed75ece	0.42064518
63	0x3fd46660	1.6593742

l2.bias f4 [8]
0	0x3f591a13	0.8480541
1	0x3e9dc24a	0.30812293
2	0xbe3a84fe	-0.18214795
3	0x3f107140	0.56422806
4	0x3ecc78ea	0.39936
5	0x3f8c8d9e	1.0980718
6	0x3f3ae88e	0.730111
7	0xbe7aab66	-0.24479446

l3.weight f4 [28, 8]
0	0x3e8c068c	0.27348745
1	0x3f195ae8	0.59904337
2	0x3e9713b2	0.29507214
3	0xbfa80c11	-1.3128682
4	0x3f8184db	1.0118669
5	0xbf06abe0	-0.5260601
6	0xc0d1551b	-6.541639
7	0x3f23d055	0.63989764
8	0xc0516b0f	-3.2721593
9	0x3ef2a779	0.47393396
10	0x3e360a79	0.17777433
11	0xbd0d47b8	-0.034492224
12	0x3e048306	0.12940606
13	0x3fbfe406	1.4991462
14	0x3e314d62	0.17314675
15	0xc0a32a04	-5.098879
16	0xbce88ef9	-0.028388487
17	0x3f0be462	0.5464536
18	0x3d872eb5	0.066007055
19	0x3e86e0ab	0.26343283
20	0xbef924f4	-0.48661005
21	0xc049472b	-3.1449687
22	0x3e833672	0.25627476
23	0xc087f4ef	-4.248649
24	0xbff70cf6	-1.930083
25	0x3f75323c	0.95779777
26	0x3e0c3f04	0.13695914
27	0x3e9ddd85	0.30833068
28	0xbdadfc63	-0.084954046
29	0x3f7dea82	0.99185956
30	0xc0a9aa09	-5.3020062
31	0xbedbde03	-0.4294282
32	0xbf3ec73f	-0.74522775
33	0x3ef07c5e	0.46969885
34	0x3dbbd473	0.09171381
35	0x3fabaf05	1.3412787
36	0xc0a4acf1	-5.146111
37	0x3f9e57ca	1.2370541
38	0xbfec2fe7	-1.8452119
39	0xc0ded848	-6.9639015
40	0xbf9309f5	-1.1487414
41	0xbe04a849	-0.1295482
42	0x3e260b89	0.16215338
43	0x3f0b93cd	0.545224
44	0xbe2e8f5c	-0.17046875
45	0xbd889ea9	-0.06670887
46	0xbf95a08f	-1.1689624
47	0x3eebd5db	0.46061596
48	0xbfa5111f	-1.289585
49	0xbf346b88	-0.7047658
50	0xbeaf361e	-0.34220976
51	0x3f9ad6bc	1.2096782
52	0xbfe87ea4	-1.8163648
53	0xbe1ac6a4	-0.15114838
54	0x3e5990b7	0.2124661
55	0xc00372cf	-2.0538824
56	0x3e5feac7	0.21866904
57	0xbf2341a4	-0.63772035
58	0xbd277a76	-0.040888272
59	0x3f3b1703	0.7308199
60	0xbff08a6c	-1.8792243
61	0xbfb0fdd2	-1.382746
62	0xc016ee43	-2.3582923
63	0x3f13e9fc	0.57778907
64	0x3e77daa3	0.24204497
65	0xc02574bd	-2.5852501
66	0x3e946691	0.28984502
67	0x3e5bf4f0	0.21480155
68	0xbfc0bb91	-1.5057241
69	0xc086be70	-4.210747
70	0xbdf7a920	-0.12092805
71	0x3f0caa82	0.54947674
72	0xbf43dd92	-0.76509964
73	0xbfdcf7d3	-1.726313
74	0x3e5b0318	0.21387899
75	0x3c01d196	0.007923504
76	0x3e72e393	0.23719625
77	0x3e9df6bd	0.3085231
78	0x3f5185a9	0.81844574
79	0xbfb5bbfd	-1.4197994
80	0x3ebf0c5e	0.37314123
81	0xc015f9ac	-2.3433638
82	0x3da6c129	0.08142311
83	0x3ea7c409	0.3276675
84	0xc0867eb7	-4.202968
85	0xbd8e5320	-0.069494486
86	0x3eeed139	0.46644
87	0xbf5e6c8c	-0.8688438
88	0xbf084117	-0.5322432
89	0x3e1723d2	0.14759758
90	0xbe817692	-0.25285774
91	0xbebafe7b	-0.36522278
92	0x3f180e51	0.59396845
93	0x3d3d65e3	0.046239745
94	0xbf702622	-0.93808186
95	0x3ebe3d63	0.3715621
96	0x3f3f480a	0.747193
97	0x3f1b1b95	0.6058896
98	0xbd8199f6	-0.06328194
99	0xbfac33b2	-1.3453276
100	0xbef964f4	-0.48709834
101	0x3ecc1ccd	0.39865723
102	0xbfb0c0c3	-1.3808826
103	0xc0048707	-2.0707414
104	0x3e8e7db8	0.2783029
105	0x3f94a477	1.1612691
106	0x3e9c68e4	0.30548775
107	0x3e7e39c8	0.2482673
108	0xbfe1b8e2	-1.7634547
109	0xc083debd	-4.1209397
110	0xc0518ba3	-3.2741477
111	0xbfa82f43	-1.3139423
112	0xbee4e5b0	-0.44706488
113	0x3eadb4fd	0.33927146
114	0x3d7efb86	0.06225159
115	0x3e8a7c14	0.2704779
116	0x3eae60c0	0.3405819
117	0x3f8e0f46	1.1098411
118	0xbfadc15b	-1.3574632
119	0xc0173470	-2.3625755
120	0xbfba7e06	-1.4569709
121	0xbf9b71af	-1.2144068
122	0xbeb946d2	-0.36186844
123	0x3e95e95e	0.29279608
124	0x3eba22aa	0.36354572
125	0xc05adae7	-3.4196107
126	0x3f0858ba	0.53260386
127	0x3dd8f89c	0.105942935
128	0x3f65d5f5	0.897796
129	0xbf227a9a	-0.63468325
130	0x3ddd0963	0.10792806
131	0x3eee77d5	0.465758
132	0xc04be104	-3.1856089
133	0xc0926d86	-4.5758696
134	0xbf4d8b74	-0.80290914
135	0xc01daba3	-2.4636009
136	0xbfabf890	-1.343523
137	0x3f43a2d9	0.7642036
138	0xbe504b42	-0.20341209
139	0x3f909008	1.1293955
140	0xc0544951	-3.3169749
141	0xc068dcc8	-3.6384754
142	0xbfbbc015	-1.4667994
143	0xbc687a19	-0.014189267
144	0x3e141ca7	0.14464055
145	0xc02a2060	-2.658226
146	0xbdcbc83b	-0.099503
147	0xbf473792	-0.7781917
148	0x3ee18e86	0.4405405
149	0xc03aa9cd	-2.9166138
150	0x3f847a6d	1.0349861
151	0xbf791b33	-0.9730713
152	0x3f51005d	0.8164118
153	0xbd44b77f	-0.048026558
154	0xbe76157d	-0.24031635
155	0xbea3b697	-0.31975242
156	0xc0902589	-4.504582
157	0x3e2bf083	0.16790967
158	0xc0142018	-2.3144588
159	0xbf301ae5	-0.6879104
160	0x3f84ee79	1.0385276
161	0xc012f5fb	-2.2962635
162	0x3d1259a3	0.035730015
163	0xbf0e317e	-0.5554427
164	0xbfc8e72c	-1.5695548
165	0xc06e61cb	-3.7247188
166	0x3f6b2697	0.9185576
167	0xc081c4f3	-4.0552917
168	0x3e04a08d	0.1295187
169	0xbfa24039	-1.2675849
170	0x3e8ccbd0	0.27499247
171	0xbf534e45	-0.82541305
172	0xbea6e37d	-0.32595435
173	0x3fbf8fa2	1.4965708
174	0x3f3b2a55	0.7311147
175	0xc0b1485d	-5.5400834
176	0x3deacfaf	0.11465394
177	0x3e4125cc	0.18862075
178	0xbe83ac25	-0.25717273
179	0xbfd284ee	-1.6446817
180	0x3eadfdd8	0.3398273
181	0xbe5109df	-0.20413922
182	0x3f2b765b	0.6697747
183	0xbfb9ea54	-1.4524636
184	0xbf862803	-1.0480961
185	0x3ef4a9d6	0.47785825
186	0x3e901594	0.28141463
187	0xc013da38	-2.310194
188	0x3f29c2aa	0.6631266
189	0xbbfae1af	-0.007656298
190	0x3f15cdeb	0.5851733
191	0xbf397e97	-0.72458786
192	0xbeaa3f7f	-0.3325157
193	0x3f1923fb	0.59820527
194	0x3e18abd3	0.14909296
195	0xc0454852	-3.082539
196	0x3e83fdd3	0.2577959
197	0x3fd2a7c2	1.6457446
198	0xbfc4b441	-1.5367509
199	0xbf06c35a	-0.5264183
200	0xc0029af1	-2.0407069
201	0xbb54d9ae	-0.003247838
202	0x3dc59612	0.09647764
203	0xbfb40ee3	-1.4067043
204	0x3ef61dea	0.48069698
205	0x3f171478	0.5901561
206	0x3ec1c336	0.37844247
207	0x3e723569	0.23653187
208	0xc09a28bc	-4.8174725
209	0x3e0b9147	0.13629638
210	0xbe174fad	-0.14776488
211	0x3ebb7fee	0.3662104
212	0x3ebec3e5	0.3725883
213	0xbfa9fb2b	-1.3279775
214	0x3ec8b9bd	0.39204207
215	0xbf01f0de	-0.5075816
216	0x3dabe4c8	0.08393246
217	0xbe2b3292	-0.1671851
218	0xbe66bed0	-0.22533727
219	0xbf824d59	-1.0179855
220	0x3e8d441b	0.27591023
221	0xbda945f0	-0.08265293
222	0xbe741566	-0.23836288
223	0x3e4f7f96	0.20263514

l3.bias f4 [28]
0	0x3e48b5ac	0.19600552
1	0x3edcf9f5	0.43159452
2	0x3eb452ca	0.35219413
3	0x3e02b0d8	0.12762773
4	0x3f30355e	0.6883143
5	0xbe8f4302	-0.2798081
6	0x3e844431	0.25833276
7	0xbda4945f	-0.08036112
8	0xbec107c1	-0.37701228
9	0xbedc0c5d	-0.42978182
10	0x3efb0d2b	0.49033484
11	0xbe1d7ec1	-0.15380384
12	0x3ed0e30b	0.4079822
13	0xbca23a78	-0.01980327
14	0xbed26701	-0.4109421
15	0xbe7e275d	-0.24819703
16	0xbed539d1	-0.41645673
17	0x3f033b5d	0.51262456
18	0xbe75f153	-0.24017839
19	0x3d1c03c9	0.038089547
20	0xbdcb9928	-0.099413216
21	0xbdd9c064	-0.10632399
22	0xbe7b13bd	-0.24519248
23	0x3c5b08f0	0.01336883
24	0xbf26474b	-0.64952534
25	0x3dee4466	0.1163414
26	0xbec479f5	-0.38374296
27	0x3d9963a1	0.07489706
